Model: "model"
_________________________________________________________________
Layer (type)                 Output Shape              Param #   
=================================================================
state (InputLayer)           [(None, 4)]               0         
_________________________________________________________________
dense (Dense)                (None, 256)               1280      
_________________________________________________________________
dense_1 (Dense)              (None, 256)               65792     
_________________________________________________________________
dense_2 (Dense)              (None, 256)               65792     
_________________________________________________________________
action (Dense)               (None, 2)                 514       
=================================================================
Total params: 133,378
Trainable params: 133,378
Non-trainable params: 0
_________________________________________________________________
Model: "model_1"
_________________________________________________________________
Layer (type)                 Output Shape              Param #   
=================================================================
state (InputLayer)           [(None, 4)]               0         
_________________________________________________________________
dense_3 (Dense)              (None, 256)               1280      
_________________________________________________________________
dense_4 (Dense)              (None, 256)               65792     
_________________________________________________________________
dense_5 (Dense)              (None, 256)               65792     
_________________________________________________________________
action (Dense)               (None, 2)                 514       
=================================================================
Total params: 133,378
Trainable params: 133,378
Non-trainable params: 0
_________________________________________________________________
episode # 0
total_reward 26.0
episode # 1
total_reward 29.0
episode # 2
total_reward 28.0
episode # 3
total_reward 26.0
episode # 4
total_reward 24.0
episode # 5
total_reward 31.0
episode # 6
…
